src/inference/models/policy_punch.onnx (onnx, 919873 bytes, 8 tensors)

actor.0.weight f4 [512, 121]
-0.09553145 0.11419548 -0.16046181 -0.13191381 -0.021504976 0.0002758156 0.29989985 -0.036440462
-0.07655461 0.14077082 0.052945245 -0.06282051 0.018792333 -0.016078485 0.0850522 0.0860545
-0.09075029 -0.058825877 -0.17956468 -0.0623967 -0.020865452 0.0062542483 0.06894097 -0.019299438
-0.07587539 -0.0052581965 0.08800557 -0.1255228 -0.031240068 0.06713987 0.11780658 0.006676572
-0.024812438 0.10377862 0.264844 0.014766671 -0.028774088 -0.07500619 -0.20875247 -0.06068128
0.009878885 -0.0015610605 -0.0150129795 0.0062314924 0.14317673 0.011885967 -0.076077685 -0.079866745
0.08947164 -0.15878484 0.22212744 0.0684493 -0.04308813 0.1116836 -0.22334975 0.120378196
0.14652868 0.018133024 0.17792533 0.13794017 -0.9275233 -0.20305908 0.18880609 0.28016943
-0.77253217 -0.3125904 -0.042102918 0.4336034 0.13601431 0.22197324 0.19054706 0.10733145
-0.23882274 -0.018609755 -0.041488014 -0.0069719865 -0.017125018 0.071946874 0.050398394 0.07695587
-0.072573744 0.054623593 -0.015390532 0.015344549 0.017698908 0.010877381 -0.050807416 -0.035720423
0.0022746113 0.034611326 0.026136305 -0.022313396 -0.0011779421 0.071494006 -0.082835354 -0.0044846013
0.04141748 0.037056252 -0.07772362 -0.012958767 0.1468979 -0.04990817 -0.022379374 0.07727389
-0.06278334 -0.048270736 -0.03179352 -0.07802645 -0.21419503 -0.05661926 -0.016844898 -0.13053596
-0.027508963 -0.29731202 0.0686891 0.0611092 -0.15083303 0.21100013 0.05015524 0.20134145
-0.029408319 -0.009707548 0.20440409 0.30297536 0.018277451 -0.028827718 -0.050702628 -0.20715754
-0.15174812 0.25795805 0.0029699442 -0.08115469 0.002017563 0.05641275 0.13195026 0.018126247
0.0024776782 -0.030402608 -0.06765996 0.1163204 0.079851545 0.07408542 0.02069223 -0.03185686
0.13547936 -0.031643927 0.03133265 0.15337591 -0.008873431 0.069665454 -0.008872504 -0.053685937
0.00053746824 -0.044444717 -0.08826376 0.05845941 0.09471094 0.07452738 -0.018822646 0.19565594
-0.0904799 -0.041151337 -0.019324651 0.07702233 0.020853953 -0.03106355 0.04563502 -0.17609279
0.16576079 0.026567305 -0.11299174 0.076300934 -0.11051344 -0.08032295 0.01266721 1.0390195
0.029624933 -0.18813868 0.019179787 -0.07605929 -0.8169777 0.442423 -0.11679 0.17618938
-0.5182481 0.56860626 -0.08747512 0.14080186 -0.16105524 -0.26566002 0.08729908 0.17765804
-0.4309722 0.26080984 0.31664905 0.15050952 -0.0066187736 -0.0057041827 0.04461416 -0.07130039
-0.026746362 0.039539058 0.018128507 -0.08878358 -0.06250031 0.025417387 -0.0835246 -0.030854499
0.023468878 -0.01998371 0.0047780727 -0.0124899475 0.041726224 -0.02993242 0.0110624 -0.0130128935
-0.03353085 0.0027984455 -0.0023346448 -0.056770742 0.020012537 -0.033659644 0.06672583 0.114236265
0.094316304 0.01127591 0.100360125 -0.19584754 0.0918796 0.037642248 -0.003962214 -0.15125662
0.022712154 -0.099821255 0.08259159 -0.002484999 0.17825142 0.24943109 -0.17537959 0.16190186
0.0991095 -0.008668173 0.18153875 -0.21012776 0.06584297 0.008207775 -0.024021938 -0.11396242
-0.13063647 -0.09768547 0.09044438 0.038903587 -0.011939348 -0.09595142 0.03424912 -0.0035130037
00000000: fea5 c3bd 52df e93d 1a50 24be 6a14 07be
00000010: 342b b0bc 589b 9039 798c 993e 9842 15bd
00000020: aac8 9cbd 3a26 103e 1ddd 583d 0aa8 80bd
00000030: 61f2 993c 07b7 83bc d92f ae3d 573d b03d
00000040: 4adb b9bd 67f3 70bd cedf 37be af93 7fbd
00000050: 06ee aabc 70f0 cc3b ec30 8d3d db19 9ebc
00000060: 8e64 9bbd f34c acbb 443c b43d 0d89 00be
00000070: 2ceb ffbc a180 893d 9444 f13d 25c7 da3b
00000080: 7443 cbbc e389 d43d a299 873e e8ef 713c
00000090: a3b7 ebbc d89c 99bd 35c3 55be ef8c 78bd
000000a0: 0cdb 213c 809c ccba 00f9 75bc 8c31 cc3b
000000b0: ec9c 123e 5cbd 423c 9ece 9bbd 2d91 a3bd
000000c0: e83c b73d 7e98 22be 6075 633e 262f 8c3d
000000d0: 2e7d 30bd 5fba e43d ccb5 64be d888 f63d
000000e0: 9d0b 163e b58b 943c 0f32 363e 3040 0d3e
000000f0: 2b72 6dbf b8ee 4fbe 6256 413e 5e72 8f3e
00000100: abc4 45bf d90b a0be 1c74 2cbd 4401 de3e
00000110: 5647 0b3e f44c 633e c51e 433e 97d0 db3d
00000120: f38d 74be 7c73 98bc 56ef 29bd 4375 e4bb
00000130: c449 8cbc e258 933d 8c6e 4e3d 0a9b 9d3d
00000140: 8ba1 94bd fdbc 5f3d 9228 7cbc b467 7b3c
00000150: 4dfd 903c 0b37 323c 701b 50bd 944f 12bd
00000160: a511 153b 9bc4 0d3d ce1b d63c 95ca b6bc
00000170: 2e65 9aba 736b 923d 95a5 a9bd 90f3 92bb
00000180: 60a5 293d 4cc8 173d 902d 9fbd 0251 54bc
00000190: 676c 163e 826c 4cbd f354 b7bc c641 9e3d
000001a0: 8d94 80bd 89b7 45bd ec39 02bd 55cc 9fbd
000001b0: f155 5bbe 99e9 67bd 50fe 89bc 38ab 05be
000001c0: 7a5a e1bc 4839 98be dfac 8c3d a44d 7a3d
000001d0: f973 1abe 6b10 583e 956f 4d3d 742c 4e3e
000001e0: b7e9 f0bc 680c 1fbc 4e4f 513e 961f 9b3e
000001f0: 98ba 953c 1b28 ecbc 8fad 4fbd 1b21 54be
00000200: dc63 1bbe 1413 843e 65a3 423b 6e34 a6bd
00000210: 1739 043b 0e11 673d f81d 073e 7f7d 943c
00000220: 8b60 223b e40e f9bc 4e91 8abd 6439 ee3d
00000230: 3589 a33d 19ba 973d c082 a93c 577c 02bd
00000240: 1abb 0a3e 109d 01bd aa56 003d 930e 1d3e
00000250: de61 11bc c3ac 8e3d fb5d 11bc c9e5 5bbd
00000260: e2e4 0c3a aa0b 36bd a1c3 b4bd 2273 6f3d
00000270: cff7 c13d d0a1 983d f331 9abc 085a 483e
00000280: 874d b9bd 4e8e 28bd bb4e 9ebc e2bd 9d3d
00000290: e9d5 aa3c fc78 febc c9eb 3a3d ab51 34be
000002a0: 32bd 293e ada3 d93c 3768 e7bd aa43 9c3d
000002b0: df54 e2bd 5c80 a4bd 218a 4f3c 97fe 843f
000002c0: fdaf f23c 6da7 40be ee1e 9d3c f9c4 9bbd
000002d0: 7325 51bf 4485 e23e 982f efbd fd6a 343e
000002e0: e8ab 04bf 2e90 113f 2826 b3bd 5d2e 103e
000002f0: aaeb 24be 9704 88be dcc9 b23d fdeb 353e
00000300: 63a8 dcbe de88 853e d31f a23e 2b1f 1a3e
00000310: 4ce2 d8bb 27ea babb 56bd 363d f005 92bd
00000320: 301b dbbc b5f3 213d 3c82 943c 2ad4 b5bd
00000330: 2a00 80bd 2038 d03c f20e abbd 93c2 fcbc
00000340: ce41 c03c e1b4 a3bc 6191 9c3b a3a2 4cbc
00000350: 1ee9 2a3d d634 f5bc 123f 353c 0834 55bc
00000360: a557 09bd 2066 373b d700 19bb 7088 68bd
00000370: 55f1 a33c b2de 09bd 8da7 883d b4f4 e93d
00000380: e828 c13d 98be 383c 9c89 cd3d 428c 48be
00000390: 5f2b bc3d c22e 1a3d 76d5 81bb 04e3 1abe
000003a0: d70e ba3c 166f ccbd c825 a93d 5ddb 22bb
000003b0: 8a87 363e dd6a 7f3e b596 33be 9ac9 253e
000003c0: ecf9 ca3d f404 0ebc 4be5 393e bb2b 57be
000003d0: aed8 863d e779 063c a8c9 c4bc 2165 e9bd
000003e0: 91c5 05be 520f c8bd e73a b93d 5e59 1f3d
000003f0: 419d 43bc 2e82 c4bd ce48 0c3d 6c3a 66bb

actor.0.bias f4 [512]
-0.06097786 0.10306558 -0.020565724 0.017769618 -0.0096471775 -0.075751215 -0.017299937 -0.15499304
0.014405184 0.0044584386 0.023308191 -0.0149951065 0.018773913 0.02149417 0.005110603 0.041641895
-0.03435364 -0.14480872 -0.016923275 0.057250597 0.0093059335 0.022646178 0.01834762 0.065442964
0.11356778 0.006027462 -0.021130795 0.12819695 -0.021910874 0.053347394 0.044274073 -0.08862345
0.015422161 0.09150843 0.07038911 0.0804665 -0.034181144 -0.028236123 -0.1850103 -0.057076186
0.012027385 -0.008136563 -0.052453235 -0.12218992 -0.12843476 0.053697042 -0.0621789 -0.219982
-0.036547508 0.12298367 -0.027416276 0.049954887 -0.08412691 0.1500892 -0.05903203 -0.110308334
0.064307205 -0.11175809 -0.09559395 -0.067328006 0.030740531 -0.06978193 -0.0052798553 -0.03436594
-0.07267573 -0.10973336 0.04543521 -0.080628835 -0.060993258 0.03465351 -0.07668129 0.030897856
0.036740005 -0.12447169 1.6383072e-05 0.12381241 0.019757489 -0.03729401 -0.11009794 -0.14189564
-0.0902775 -0.039422903 -0.07615098 0.08934503 0.021677708 -0.1136503 -0.078517444 -0.006424558
-0.10615731 0.04703817 0.11910275 0.07534311 -0.0032256742 -0.097362995 0.040247373 -0.08847531
0.058050897 0.05375677 -0.067141674 -0.13698365 -0.0808336 0.032197412 0.050038137 0.13485995
0.07880919 -0.08224418 -0.074222416 -0.1487594 0.042127877 -0.008234455 -0.10022954 -0.07202393
-0.043243043 0.023715138 -0.009641281 -0.05193058 0.07623486 -0.10821086 -0.05504973 -0.10187523
-0.083520904 -0.0077248784 -0.053967778 -0.014594516 0.053827357 -0.023923859 -0.08334027 0.049009968
-0.013501832 0.0038990614 -0.036896568 -0.061020177 0.085815534 -0.12542892 -0.037899707 0.039453868
0.015824493 -0.023752209 0.002782627 -0.09423849 -0.02837415 -0.108313434 0.10795148 -0.017209107
-0.07575445 0.06905699 -0.057628687 -0.07327147 -0.035443503 0.011075782 0.12243225 -0.16970663
0.0020469052 0.10934253 -0.013365012 0.005916912 -0.07536485 0.022271516 -0.10141959 -0.064891696
0.04870454 -0.05837219 0.14655209 0.010003188 -0.12852642 -0.0083862 0.048626162 0.037088905
-0.012372515 -0.08759948 -0.029136345 0.15830946 -0.07004219 -0.016398443 0.10513404 -0.03866284
-0.00792877 0.05907646 0.0585158 -0.07106458 0.067067385 0.08375365 0.059236355 -0.049469974
0.1239401 -0.19063687 0.021216167 -0.16154298 -0.09478125 0.02712737 0.12646532 0.1118661
-0.0018623343 -0.031536613 -0.092341445 0.051888146 -0.10596527 0.09192302 -0.099625066 -0.028714359
-0.07653066 -0.10218778 0.17962402 0.07295176 0.07128356 0.08443709 -0.06388128 -0.010800731
0.042582203 0.05204832 0.0030693721 0.06804164 0.06434862 -0.11480914 0.023929887 -0.1401314
-0.015527986 -0.0877477 0.079050384 -0.12705138 0.0328156 0.04315575 -0.010624125 0.013904524
-0.09962023 0.13129337 0.020832956 0.051239427 0.049611185 0.04094822 0.052408192 0.08351372
0.10583601 -0.059022296 -0.099671885 0.085168466 -0.07887269 0.0098761 0.07999767 -0.0667435
-0.11851835 -0.124875285 -0.05881577 -0.054427788 -0.091069035 0.017500615 -0.091522686 -0.108126655
-0.037774697 -0.07208221 0.024034206 -0.14695916 -0.11550114 -0.031725142 -0.04750373 -0.03547841
00000000: ecc3 79bd 0c14 d33d 7379 a8bc 9791 913c
00000010: 320f 1ebc 7423 9bbd 99b8 8dbc 7fb6 1ebe
00000020: b903 6c3c 1818 923b d2f0 be3c 09ae 75bc
00000030: c0cb 993c 8b14 b03c d876 a73b b190 2a3d
00000040: 67b6 0cbd bd48 14be aea2 8abc 9a7f 6a3d
00000050: ea77 183c 7a84 b93c bf4d 963c f606 863d
00000060: 3996 e83d 0482 c53b 7d1a adbc 1046 033e
00000070: 6f7e b3bc cc82 5a3d bb58 353d 3680 b5bd
00000080: 3bad 7c3c c668 bb3d 2a28 903d 9fcb a43d
00000090: 8701 0cbd 714f e7bc 5773 3dbe b8c8 69bd
000000a0: 820e 453c 384f 05bc 34d9 56bd b53e fabd
000000b0: 6784 03be 6ef1 5b3d 4daf 7ebd f642 61be
000000c0: d7b2 15bd ddde fb3d 1998 e0bc 7f9d 4c3d
000000d0: bb4a acbd fcb0 193e 92cb 71bd 56e9 e1bd
000000e0: 7fb3 833d 6de1 e4bd c3c6 c3bd 44e3 89bd
000000f0: 91d3 fb3c d4e9 8ebd a302 adbb 4dc3 0cbd
00000100: 03d7 94bd e2bb e0bd 451a 3a3d bb20 a5bd
00000110: 11d4 79bd d7f0 0d3d 150b 9dbd 801d fd3c
00000120: b07c 163d 03eb febd 616e 8937 5c91 fd3d
00000130: 75da a13c 9bc1 18bd 077b e1bd 174d 11be
00000140: 69e3 b8bd e979 21bd 0cf5 9bbd 87fa b63d
00000150: 7395 b13c 7dc1 e8bd c1cd a0bd 1985 d2bb
00000160: 0169 d9bd 19ab 403d 25ec f33d 7d4d 9a3d
00000170: d565 53bb 4066 c7bd 6eda 243d 8b32 b5bd
00000180: c7c6 6d3d 0f30 5c3d 9381 89bd 7145 0cbe
00000190: 168c a5bd 6fe1 033d caf4 4c3d ba18 0a3e
000001a0: b666 a13d a36f a8bd ec01 98bd 6254 18be
000001b0: 488e 2c3d cfe9 06bc 2545 cdbd 4881 93bd
000001c0: 9e1f 31bd 4046 c23c 77f6 1dbc 29b5 54bd
000001d0: 0621 9c3d a89d ddbd d37b 61bd f6a3 d0bd
000001e0: 020d abbd fa20 fdbb 510d 5dbd d61d 6fbc
000001f0: 137a 5c3d f8fb c3bc 4eae aabd adbe 483d
00000200: ca36 5dbc 6587 7f3b db20 17bd 4bf0 79bd
00000210: 0ec0 af3d 7070 00be b93c 1bbd 619a 213d
00000220: 5ea2 813c fe93 c2bc bc5c 363b 1c00 c1bd
00000230: e870 e8bc 6fd3 ddbd aa15 dd3d 1dfa 8cbc
00000240: 2625 9bbd c06d 8d3d 0f0c 6cbd 5a0f 96bd
00000250: 352d 11bd 3277 353c c2bd fa3d 93c7 2dbe
00000260: 5f25 063b faee df3d ecf8 5abc a8e2 c13b
00000270: e358 9abd c172 b63c 13b5 cfbd f0e5 84bd
00000280: 697e 473d ad17 6fbd c011 163e 69e4 233c
00000290: 6e9c 03be 4666 09bc 3a2c 473d 89ea 173d
000002a0: 17b6 4abc 5b67 b3bd 58af eebc e01b 223e
000002b0: 4872 8fbd 0756 86bc 8450 d73d ed5c 1ebd
000002c0: ace7 01bc 28fa 713d 43ae 6f3d 4e8a 91bd
000002d0: a05a 893d 0987 ab3d d2a1 723d 07a1 4abd
000002e0: 4fd4 fd3d 5036 43be 87cd ad3c 866b 25be
000002f0: ac1c c2bd 383a de3c 2080 013e 0e1a e53d
00000300: 9219 f4ba 892c 01bd 831d bdbd aa88 543d
00000310: 5204 d9bd 2342 bc3d 3a08 ccbd 603a ebbc
00000320: 1bbc 9cbd d447 d1bd 5cef 373e bb67 953d
00000330: 1dfd 913d 5aed ac3d 30d4 82bd 8df5 30bc
00000340: ad6a 2e3d 9f30 553d 8527 493b 6a59 8b3d
00000350: 36c9 833d 0e21 ebbd 9c08 c43c 9b7e 0fbe
00000360: 1869 7ebc 11b5 b3bd 2be5 a13d c219 02be
00000370: a769 063d 15c4 303d cf10 2ebc cdcf 633c
00000380: b105 ccbd c571 063e e0a9 aa3c 6fe0 513d
00000390: 1935 4b3d 52b9 273d f9a9 563d 3e09 ab3d
000003a0: 8dc0 d83d 5dc1 71bd c620 ccbd ce6c ae3d
000003b0: 0188 a1bd 5ecf 213c d2d5 a33d d1b0 88bd
000003c0: c0b9 f2bd 9dbe ffbd cee8 70bd acef 5ebd
000003d0: 6782 babd 735d 8f3c 3f70 bbbd 8271 ddbd
000003e0: a4b9 1abd d69f 93bd 62e3 c43c 767c 16be
000003f0: dd8b ecbd 39f2 01bd 4593 42bd cf51 11bd

actor.2.weight f4 [256, 512]
-0.11525042 -0.060350373 0.056255665 0.12108529 -0.031246038 -0.016784715 0.0046611675 0.007330188
0.08994044 -0.04062327 -0.05246649 -0.0027885751 0.039568126 -0.03814179 0.09963132 -0.021938745
0.041217253 -0.0763824 -0.050422993 -0.09169579 -0.02055569 0.04071167 -0.07026012 -0.07734161
0.012156978 0.04536639 -0.046545994 -0.06076939 -0.033901446 0.00874616 -0.01215532 0.04996393
-0.030178912 -0.047896992 -0.0014156074 0.055566527 -0.039294414 0.02438154 0.029601049 -0.15380582
-0.11467538 -0.051057335 0.10983624 0.018219339 -0.019148484 -0.040105265 -0.028949568 0.07994125
0.0011217385 -0.083110124 0.042215936 0.009020701 0.007240289 -0.1494017 -0.004079543 -0.0693319
0.06671279 0.075522594 -0.017609568 0.06874662 -0.10640016 0.08229617 -0.08649947 -0.040425222
0.13779771 0.14492245 0.046501268 -0.0433489 -0.050508477 0.003052571 -0.054735634 -0.04228855
0.008687353 0.0068338015 0.018000882 -0.0740267 -0.04475994 -0.005284541 -0.04094342 0.058417495
0.10754833 -0.053621992 0.05890573 -0.103047706 -0.07200313 -0.031827886 0.008579736 0.0083344
-0.004706038 0.060426105 -0.111805335 0.010196895 0.05761673 -0.0042993394 0.08019794 -0.052543968
0.04954125 -0.062802516 -0.029511413 0.018769832 0.01580952 0.107132465 -0.094237186 0.015874054
0.041519478 0.055377714 -0.049502835 0.09231456 0.02415753 -0.052124463 -0.017821116 0.032828324
0.0095789535 -0.054722436 0.029651724 -0.11620426 -0.11064987 -0.013997778 -0.016580543 -0.018567745
0.058305 0.08046744 0.08460072 0.07023517 0.01558145 0.04186714 0.026841993 0.024707345
-0.04695172 0.027101554 -0.014222065 -0.052127343 -0.039779563 -0.034454487 -0.026989957 0.023843367
0.038072556 0.08856511 -0.10456591 -0.020206606 -0.05058044 -0.12581123 -0.09894132 -0.053708207
0.08015853 -0.06952195 0.07339697 0.03082522 -0.005171808 0.020866608 0.01862407 0.060727544
0.028813582 0.06968214 -0.14105192 0.028101007 0.060766477 -0.19830325 -0.022017378 -0.11940985
-0.010541449 0.032547943 -0.040222246 -0.008206198 0.109204605 -0.0030472917 -0.09072714 0.0625461
0.08710031 0.047475938 -0.037310295 -0.069992535 -0.02201771 0.10298623 0.038869914 0.13333778
-0.104716375 -0.1822437 0.06874684 -0.08706507 0.12269529 0.05445216 -0.07344052 0.067728214
-0.029268282 0.045132868 0.014251676 -0.042371295 0.04941656 0.04196501 0.032369033 -0.04257067
-0.17308769 -0.038880493 -0.101874724 -0.01025304 -0.023953928 0.042331286 -0.058771044 -0.015870843
-0.06736972 -0.048090264 0.034033738 0.04769265 0.011414777 0.015473341 -0.0394962 -0.031769875
-0.17223515 -0.03388533 0.066186756 -0.0056985207 -0.032630987 0.06658327 0.0905168 0.059428055
0.029637357 0.115195416 -0.06925827 0.11073846 -0.011198577 -0.0022325162 0.024456859 0.024382386
0.12001082 -0.07692087 -0.1501587 -0.09818974 -0.16082618 -0.030483482 -0.06905836 -0.040429935
0.07333563 0.081210405 -0.020009179 -0.047531724 -0.01073535 -0.063505344 0.0023706707 -0.06863319
0.05303411 0.05748304 0.031457353 -0.14976117 -0.003977954 0.08704342 0.038584843 -0.21247165
-0.10824965 0.11233074 0.079309024 -0.040060032 0.12747946 0.059479877 0.059104815 -0.041664466
00000000: 6a08 ecbd f431 77bd 576c 663d 91fb f73d
00000010: b1f7 ffbc 1980 89bc b5bc 983b 1332 f03b
00000020: b232 b83d 9664 26bd 1ae7 56bd 87c0 36bb
00000030: 3012 223d 913a 1cbd 810b cc3d e2b8 b3bc
00000040: 6cd3 283d 606e 9cbd 5788 4ebd 01cb bbbd
00000050: 6864 a8bc 48c1 263d 8ae4 8fbd 4765 9ebd
00000060: 102e 473c 1cd2 393d 03a7 3ebd 53e9 78bd
00000070: 3edc 0abd 0e4c 0f3c 1b27 47bc faa6 4c3d
00000080: c439 f7bc a32f 44bd e78b b9ba ba99 633d
00000090: 2ef3 20bd ccbb c73c e67d f23c 467f 1dbe
000000a0: edda eabd 7f21 51bd d3f1 e03d b940 953c
000000b0: 48dd 9cbc 6b45 24bd a527 edbc 3db8 a33d
000000c0: 4c07 933a a435 aabd 9eea 2c3d 90cb 133c
000000d0: f23f ed3b c2fc 18be b0ad 85bb e2fd 8dbd
000000e0: b7a0 883d 97ab 9a3d f141 90bc 07cb 8c3d
000000f0: 54e8 d9bd e58a a83d a226 b1bd eb94 25bd
00000100: d81a 0d3e 8d66 143e 1d78 3e3d 9e8e 31bd
00000110: fae1 4ebd a50d 483b 7932 60bd c236 2dbd
00000120: 6655 0e3c 15ee df3b 9676 933c 4f9b 97bd
00000130: 3356 37bd f129 adbb 4ab4 27bd 2f47 6f3d
00000140: 4d42 dc3d bca2 5bbd 2247 713d ad0a d3bd
00000150: 6176 93bd f55d 02bd 0592 0c3c 028d 083c
00000160: 1c35 9abb 5d81 773d 32fa e4bd e110 273c
00000170: 85ff 6b3d 79e1 8cbb d13e a43d 5838 57bd
00000180: c4eb 4a3d 9b9e 80bd ebc1 f1bc 31c3 993c
00000190: f782 813c 4468 db3d 6dff c0bd 4e0a 823c
000001a0: 5410 2a3d bed3 623d 7cc3 4abd 6b0f bd3d
000001b0: 03e6 c53c 7680 55bd 97fd 91bc fe76 063d
000001c0: 0bf1 1c3c a224 60bd 2ce8 f23c 80fc edbd
000001d0: 669c e2bd f056 65bc ebd3 87bc 621b 98bc
000001e0: 39d1 6e3d 1dcc a43d 2443 ad3d 75d7 8f3d
000001f0: 5749 7f3c e17c 2b3d bde3 db3c 0f67 ca3c
00000200: 7250 40bd 1404 de3c aa03 69bc 7b83 55bd
00000210: e5ef 22bd 2620 0dbd 0b1a ddbc 2a53 c33c
00000220: f8f1 1b3d a061 b53d a726 d6bd 5388 a5bc
00000230: 6f2d 4fbd a9d4 00be bfa1 cabd 23fd 5bbd
00000240: 282a a43d 8661 8ebd 2751 963d 2c85 fc3c
00000250: 4578 a9bb 73f0 aa3c 8191 983c 72bd 783d
00000260: 760a ec3c 83b5 8e3d ea6f 10be 1534 e63c
00000270: 45e6 783d 0210 4bbe ca5d b4bc 278d f4bd
00000280: 0bb6 2cbc fe50 053d 15c0 24bd 4a73 06bc
00000290: aaa6 df3d 12b5 47bb 27cf b9bd 2b18 803d
000002a0: a661 b23d 2176 423d aed2 18bd 3f58 8fbd
000002b0: 7c5e b4bc 72ea d23d 0f36 1f3d b389 083e
000002c0: 8a75 d6bd 189e 3abe 25cb 8c3d 2c4f b2bd
000002d0: ab47 fb3d 3a09 5f3d fc67 96bd 17b5 8a3d
000002e0: 09c4 efbc 3edd 383d dd7f 693c 868d 2dbd
000002f0: 0569 4a3d 81e3 2b3d 6495 043d 955e 2ebd
00000300: e63d 31be 2741 1fbd b2a3 d0bd 5efc 27bc
00000310: 073b c4bc 9263 2d3d e8b9 70bd 9203 82bc
00000320: 23f9 89bd 4cfa 44bd f666 0b3d 5e59 433d
00000330: 0b05 3b3c e583 7d3c c4c6 21bd 2121 02bd
00000340: 695e 30be 58cb 0abd ec8c 873d a8ba babb
00000350: 12a8 05bd cf5c 883d df60 b93d d56a 733d
00000360: 0bca f23c 93eb eb3d 48d7 8dbd d9ca e23d
00000370: 3c7a 37bc 684f 12bb c059 c83c 92bd c73c
00000380: 3cc8 f53d b088 9dbd 34c3 19be b417 c9bd
00000390: 9eaf 24be 7fb8 f9bc 786e 8dbd dc99 25bd
000003a0: fe30 963d a451 a63d 4aea a3bc a0b0 42bd
000003b0: 52e3 2fbc 170f 82bd 415d 1b3b 8f8f 8cbd
000003c0: 4c3a 593d 5673 6b3d 6dd9 003d fe5a 19be
000003d0: 7f59 82bb d243 b23d 240b 1e3d 2b92 59be
000003e0: feb1 ddbd a90d e63d c56c a23d fd15 24bd
000003f0: fa89 023e 2ca1 733d e417 723d 5ca8 2abd

actor.2.bias f4 [256]
-0.09938193 -0.053575464 -0.089346156 -0.07479493 -0.042809315 -0.06865418 0.022238113 -0.015080002
0.015914075 -0.073545545 -0.042656425 -0.07720503 -0.090363346 -0.035801068 -0.08703375 -0.035462074
-0.029320873 -0.11292278 -0.16600741 -0.015282242 -0.04753033 -0.13741368 0.010599078 -0.14914614
-0.028535197 -0.09920701 -0.051088348 -0.07824639 -0.014310074 -0.012763866 -0.024377884 -0.08612177
-0.00544347 -0.03500624 -0.014630697 -0.05173973 -0.021802003 -0.05970544 -0.14126413 -0.09324608
-0.049036957 -0.09324132 -0.047939386 -0.03887106 -0.08612538 -0.031635247 -0.027156122 -0.18682054
-0.05539408 -0.011506132 -0.09165404 -0.10040094 -0.082574576 0.01560987 0.035692286 0.019100666
-0.050916933 -0.0421088 -0.11181231 -0.04859558 -0.07027306 0.045623615 0.004549907 -0.05328129
-0.11011835 0.012607347 0.0056501436 -0.049303953 -0.10791951 -0.002941678 -0.115376554 -0.11411155
0.0144531345 -0.10080826 -0.12013874 -0.09360592 -0.007926028 0.009300501 -0.047393523 -0.087466985
-0.018084573 -0.020119235 -0.06813916 -0.08774062 -0.0046782726 -0.10618713 0.032302495 -0.07529563
-0.09882246 -0.06648365 -0.06323337 -0.019931894 -0.062097713 -0.15051633 -0.021793755 -0.010490478
-0.034803946 -0.068766244 0.032210145 -0.21217245 -0.007640139 -0.16329925 -0.06828622 -0.091343895
-0.107748926 0.05324348 -0.025288444 -0.0877192 -0.026479892 -0.087249145 0.0054364586 -0.037559293
-0.08963686 -0.08016428 -0.123827346 0.00648797 -0.08000727 -0.030578453 -0.057998706 0.0067245546
-0.0125517845 -0.072996795 -0.17115647 -0.064153366 -0.024211444 -0.080821194 -0.07310196 -0.07122715
-0.14546856 0.038273714 -0.028454665 -0.0033573296 0.012148142 -0.058362912 0.013847826 -0.07256551
-0.056985956 -0.009529134 0.0037486227 -0.04376392 0.018121734 -0.09486266 -0.053048223 -0.011345512
-0.044648584 0.010546849 -0.007640254 -0.05218165 -0.17495048 0.02307605 -0.03633177 -0.04032929
-0.049605284 -0.042170096 -0.0060739424 0.051199913 0.013864549 -0.10822233 0.0006936951 -0.029482787
-0.052042633 -0.048754215 -0.10676633 -0.0053968434 0.021490509 -0.02975277 -0.053400442 -0.0608827
-0.051024765 -0.111503504 -0.05664796 -0.011142382 -0.17147481 -0.12827796 -0.09172191 0.0027658097
-0.061587967 -0.07520352 -0.07126611 0.015121275 -0.013306729 -0.052120414 -0.026184384 -0.020082757
-0.022058766 -0.12640867 -0.12409567 -0.15644585 -0.050604597 -0.084032744 -0.002714688 -0.118041694
-0.04246312 0.059728272 0.026036203 -0.11113299 0.044265933 -0.0569778 -0.029400334 -0.010803605
-0.036685694 -0.11179119 -0.012270572 -0.08906924 -0.028684756 -0.10158626 -0.03453057 -0.090551205
-0.060159072 0.05836329 -0.03572543 -0.03621695 -0.12863502 -0.04191493 -0.08316746 -0.028527932
-0.12477447 -0.034380198 0.058800373 0.009544911 0.035858624 -0.0012446187 -0.048565447 -0.07847555
0.034490585 -0.0146602 -0.043754153 -0.15141197 -0.06786047 -0.15333678 -0.03518227 -0.13342826
0.015230873 -0.034705672 -0.025937581 -0.14337395 0.008343273 -0.077197716 -0.06522154 -0.023469605
-0.03493927 -0.09588486 -0.08935384 -0.03246857 -0.09646914 -0.12864992 -0.029790334 -0.045027483
-0.1326631 -0.031022238 0.0067249206 0.017663732 -0.0009774093 -0.10950984 -0.09295785 -0.07993167
00000000: c188 cbbd f271 5bbd 1efb b6bd 162e 99bd
00000010: d258 2fbd 909a 8cbd b42c b63c 1d12 77bc
00000020: 3c5e 823c 0c9f 96bd 81b8 2ebd ac1d 9ebd
00000030: 6b10 b9bd 24a4 12bd c03e b2bd ae40 11bd
00000040: 5432 f0bc 0f44 e7bd d9fd 29be 5e62 7abc
00000050: 2aaf 42bd 2cb6 0cbe c1a7 2d3c c4b9 18be
00000060: a5c2 e9bc 0b2d cbbd 0442 51bd a53f a0bd
00000070: cd74 6abc 891f 51bc 21b4 c7bc 9c60 b0bd
00000080: 235f b2bb b462 0fbd 97b5 6fbc 0aed 53bd
00000090: 1d9a b2bc b18d 74bd 8ba7 10be cdf7 bebd
000000a0: fada 48bd 4ef5 bebd 175c 44bd 4337 1fbd
000000b0: 8162 b0bd f693 01bd 8476 debc e24d 3fbe
000000c0: e7e4 62bd 3784 3cbc 1db5 bbbd 029f cdbd
000000d0: dc1c a9bd 8ac0 7f3c 1332 123d 0079 9c3c
000000e0: 468e 50bd 477a 2cbd dafd e4bd 290c 47bd
000000f0: 52eb 8fbd d4df 3a3d 6317 953b 7b3d 5abd
00000100: bb85 e1bd 0c8f 4e3c d724 b93b f1f2 49bd
00000110: e704 ddbd 2bc9 40bb 8b4a ecbd 51b3 e9bd
00000120: d7cc 6c3c 9074 cebd 4d0b f6bd 76b4 bfbd
00000130: 2cdc 01bc 2161 183c b61f 42bd e421 b3bd
00000140: 1926 94bc 18d1 a4bc 8b8c 8bbd 5bb1 b3bd
00000150: 324c 99bb a378 d9bd 9f4f 043d 9834 9abd
00000160: 6e63 cabd 9428 88bd 7f80 81bd 3648 a3bc
00000170: 2c5a 7ebd f420 1abe d188 b2bc 41e0 2bbc
00000180: 958e 0ebd 51d5 8cbd c9ee 033d bc43 59be
00000190: 225a fabb eb37 27be a5d9 8bbd 8212 bbbd
000001a0: 78ab dcbd d615 5a3d b629 cfbc 20a6 b3bd
000001b0: 5cec d8bc aeaf b2bd 5224 b23b c6d7 19bd
000001c0: 8893 b7bd 2c2d a4bd 3199 fdbd 0999 d43b
000001d0: dada a3bd aa7f fabc 0d90 6dbd a759 dc3b
000001e0: 00a6 4dbc 587f 95bd a443 2fbe d762 83bd
000001f0: 1457 c6bc 9585 a5bd 7bb6 95bd 8adf 91bd
00000200: b6f5 14be e6c4 1c3d c219 e9bc a506 5cbb
00000210: 0009 473c f30d 6fbd fee1 623c 3a9d 94bd
00000220: 1b6a 69bd 1620 1cbc 74ab 753b cc41 33bd
00000230: 0874 943c 5b47 c2bd 1849 59bd 87e2 39bc
00000240: 6fe1 36bd b1cc 2c3c 195b fabb 6dbc 55bd
00000250: 3826 33be fc09 bd3c 9fd0 14bd 5330 25bd
00000260: e92e 4bbd 8dba 2cbd ec07 c7bb 00b7 513d
00000270: 2228 633c aba3 ddbd 17d9 353a e385 f1bc
00000280: a82a 55bd 80b2 47bd 4ea8 dabd 01d8 b0bb
00000290: dd0c b03c 15bc f3bc 6cba 5abd 2360 79bd
000002a0: 58ff 50bd f35b e4bd b107 68bd 8a8e 36bc
000002b0: 1897 2fbe 4c5b 03be b2d8 bbbd 9642 353b
000002c0: aa43 7cbd 4e04 9abd f7f3 91bd 39bf 773c
000002d0: 7704 5abc 377c 55bd a280 d6bc 9884 a4bc
000002e0: 96b4 b4bc 4671 01be df25 febd 5733 20be
000002f0: c446 4fbd 5c19 acbd e8e8 31bb d8bf f1bd
00000300: cfed 2dbd a2a5 743d e049 d53c b199 e3bd
00000310: 3250 353d 8e61 69bd f8d8 f0bc 9b01 31bc
00000320: bd43 16bd c8f2 e4bd 820a 49bc ef69 b6bd
00000330: 4bfc eabc 750c d0bd ed6f 0dbd e972 b9bd
00000340: 5c69 76bd 580e 6f3d d454 12bd 3958 14bd
00000350: e6b8 03be fdae 2bbd b453 aabd 69b3 e9bc
00000360: c289 ffbd 40d2 0cbd a9d8 703d 4262 1c3c
00000370: 7ee0 123d 7922 a3ba 90ec 46bd cab7 a0bd
00000380: 0046 0d3d 5631 70bc 8e37 33bd bd0b 1bbe
00000390: 6efa 8abd 5104 1dbe 491b 10bd 6ba1 08be
000003a0: e98a 793c 8927 0ebd 0d7b d4bc 9fd0 12be
000003b0: 39b2 083c d619 9ebd df92 85bd 5443 c0bc
000003c0: 7b1c 0fbd 485f c4bd 25ff b6bd c3fd 04bd
000003d0: 9d91 c5bd cebc 03be dc0a f4bc bd6e 38bd
000003e0: d6d8 07be 5922 febc b95c dc3b 88b3 903c
000003f0: 6a1c 80ba b246 e0bd af60 bebd 37b3 a3bd

actor.4.weight f4 [128, 256]
-0.014502142 0.034107648 -0.019368885 -0.027401473 0.0152989365 0.12538017 -0.0010042428 0.047240857
-0.009783515 -0.05393898 0.076950744 -0.055711918 -0.025064213 0.048783723 -0.05988465 0.012648201
0.14044419 -0.021825226 -0.0781448 0.008397538 0.11349103 0.013911696 -0.055061612 -0.017286358
0.07036449 0.047040626 -0.03129767 -0.046406996 0.024698792 0.09681998 -0.14720286 -0.12571403
0.047177702 -0.05464366 0.028631806 0.016869593 -0.05743135 -0.111035444 0.04582669 0.006445994
0.051657017 0.1914035 0.05529275 0.06994615 0.052160256 0.066581644 -0.026122812 0.012629919
-0.037463736 -0.008419137 0.013145169 -0.022541543 0.044112675 -0.003227333 0.04050845 -0.08132945
-0.08166724 -0.024878196 -0.0007415671 -0.06988706 0.032679845 -0.10878359 0.09053571 -0.004306415
-0.10709483 0.06486335 0.04361397 0.010576615 -0.04830998 -0.09994379 0.008729576 0.06392982
-0.0100931935 0.00543157 -0.010641267 0.116579816 -0.010046274 0.1006376 -0.048681132 -0.04398913
0.03871887 -0.033445768 -0.028020596 -0.072026744 -0.020883694 0.079579875 0.06863238 0.068331026
0.10550621 -0.06656323 0.0999341 0.07983713 -0.12852232 0.04671693 0.018162685 0.097939566
0.11068415 -0.034454394 -0.047019366 -0.10479526 -0.04028978 0.0647649 0.055128008 0.12982638
0.03621705 0.055278223 -0.0568609 0.102994286 -0.0999302 0.112044975 -0.0010977366 0.0069767563
0.071283795 0.012272077 0.106476314 -0.07312312 -0.007834334 0.08565052 -0.0025861003 -0.023747252
-0.030102728 -0.040083833 0.020354323 -0.030731753 0.13305418 -0.027336987 0.06841163 0.025553757
0.012683146 -0.044729225 -0.11107652 0.0852667 0.07882005 -0.015006404 -0.011628303 -0.036841877
0.13662 -0.0022240346 -0.08156213 -0.023873547 -0.0031491246 0.112231515 0.05385278 0.037170324
0.020273915 0.0026087952 -0.22300485 0.027602086 0.03345595 -0.052169513 0.010755011 0.038293708
0.06438229 0.16364801 -0.05458086 0.12005961 -0.0684564 -0.067109145 0.11622606 0.04770608
-0.0083394665 -0.029369507 0.07776744 0.11337382 0.008517805 -0.0005055271 0.08643756 0.12713847
0.016435351 -0.021224188 0.0271009 -0.013158738 -0.12654671 0.009206556 -0.050693892 -0.048508685
0.017710272 -0.046509292 -0.114412144 0.07806463 -0.026166968 0.027298173 -0.06576606 0.05804275
-0.12231732 0.041154016 -0.0019958836 0.029903857 0.009011633 0.015669549 -0.00041013004 0.11124994
-0.06052423 0.022375125 -0.030799257 0.17665641 -0.063018836 0.04716576 -0.01228186 0.060049422
0.09004651 0.027404845 0.08959875 -0.044424407 0.018686676 -0.036363102 0.07835862 -0.0066694827
0.059427407 -0.0013468695 0.0015554836 0.08062151 -0.08138732 -0.0035253167 -0.09082466 -0.0066948216
0.11839061 -0.109288365 -0.025606412 -0.014846656 -0.07725131 0.08231894 -0.016192434 -0.0319671
0.13505489 -0.02374856 -0.020143483 0.010209717 0.11517516 0.04123736 -0.010040422 -0.008329602
-0.13398963 0.0017236633 0.11826197 -0.06700805 0.10888839 -0.047583416 -0.0019417587 0.0028325468
-0.09741296 -0.081475586 -0.09765114 0.0379977 0.091906115 0.093633786 0.03417706 0.0066331406
0.052164037 0.03838517 0.05037323 -0.03447645 -0.025215158 -0.09499394 0.0060057133 -0.007950961
00000000: 649a 6dbc 76b4 0b3d 7fab 9ebc 0e79 e0bc
00000010: 64a8 7a3c a963 003e cca0 83ba a17f 413d
00000020: 094b 20bc 1fef 5cbd 5a98 9d3d 2e32 64bd
00000030: 7753 cdbc 71d1 473d 9b49 75bd 663a 4f3c
00000040: 9ad0 0f3e d1ca b2bc 620a a0bd d495 093c
00000050: fc6d e83d e2ed 633c 4988 61bd 1f9c 8dbc
00000060: 421b 903d acad 403d fc31 00bd 4315 3ebd
00000070: 1f55 ca3c 8e49 c63d 59bc 16be 2ebb 00be
00000080: 683d 413d 08d2 5fbd 408d ea3c 1a32 8a3c
00000090: 233d 6bbd 8d66 e3bd c4b4 3b3d eb38 d33b
000000a0: 4f96 533d 47ff 433e a77a 623d ed3f 8f3d
000000b0: fea5 553d f55b 883d 82ff d5bc b8ed 4e3c
000000c0: 9373 19bd 6cf0 09bc d65e 573c 0ba9 b8bc
000000d0: 7eaf 343d aa81 53bb 30ec 253d 0e90 a6bd
000000e0: 2741 a7bd 5ccd cbbc ba65 42ba f220 8fbd
000000f0: 4ddb 053d eec9 debd c96a b93d d41c 8dbb
00000100: 8954 dbbd 13d7 843d 90a4 323d 8a49 2d3c
00000110: b0e0 45bd 54af ccbd 7f06 0f3c a3ed 823d
00000120: ec5d 25bc 50fb b13b b558 2ebc 66c1 ee3d
00000130: 2199 24bc 161b ce3d de65 47bd f22d 34bd
00000140: ae97 1e3d 6efe 08bd 738b e5bc c282 93bd
00000150: 4814 abbc c6fa a23d 228f 8c3d 23f1 8b3d
00000160: a413 d83d 4d52 88bd 40aa cc3d a681 a33d
00000170: 5b9b 03be 405a 3f3d e9c9 943c 8a94 c83d
00000180: 5fae e23d 0d20 0dbd 6197 40bd e69e d6bd
00000190: e506 25bd 76a3 843d e8cd 613d 35f1 043e
000001a0: 5458 143d 6b6b 623d fae6 68bd abee d23d
000001b0: 34a8 ccbd d677 e53d eee1 8fba 469d e43b
000001c0: 3dfd 913d d210 493c 4110 da3d 93c1 95bd
000001d0: 945b 00bc 8a69 af3d 907b 29bb 9989 c2bc
000001e0: ff99 f6bc f22e 24bd 1cbe a63c 28c1 fbbc
000001f0: 5b3f 083e d1f1 dfbc 661b 8c3d 1d56 d13c
00000200: f8cc 4f3c fe35 37bd 167c e3bd 4fa0 ae3d
00000210: 686c a13d 6cdd 75bc a384 3ebc 82e7 16bd
00000220: 1de6 0b3e 1cc1 11bb 0c0a a7bd 7592 c3bc
00000230: 8b61 4ebb a3d9 e53d bc94 5c3d e93f 183d
00000240: 7b15 a63c 52f8 2a3b 625b 64be c51d e23c
00000250: 1b09 093d b3af 55bd c935 303c ddd9 1c3d
00000260: ddda 833d 5893 273e 2e90 5fbd d0e1 f53d
00000270: de32 8cbd 8570 89bd ee07 ee3d 7367 433d
00000280: 42a2 08bc 5298 f0bc 8944 9f3d 8930 e83d
00000290: 438e 0b3c 5985 04ba 2d06 b13d 9630 023e
000002a0: 6ea3 863c 59de adbc b502 de3c bf97 57bc
000002b0: 7695 01be 18d7 163c 66a4 4fbd 0bb1 46bd
000002c0: 2215 913c 8780 3ebd ea50 eabd 59e0 9f3d
000002d0: 1c5c d6bc 6ba0 df3c 5bb0 86bd 3cbe 6d3d
000002e0: 8181 fabd 1d91 283d 5fcd 02bb eff8 f43c
000002f0: 87a5 133c 6d5d 803c b906 d7b9 02d7 e33d
00000300: 41e8 77bd 0a4c b73c b94e fcbc 6be5 343e
00000310: 0510 81bd e230 413d db39 49bc 62f6 753d
00000320: 4e6a b83d 2080 e03c 8d7f b73d 5ef6 35bd
00000330: cd14 993c 7af1 14bd 7c7a a03d ad8b dabb
00000340: 276a 733d 7189 b0ba 5ee1 cb3a e41c a53d
00000350: 65ae a6bd 0009 67bb 4802 babd 3c60 dbbb
00000360: c776 f23d 94d2 dfbd 8ac4 d1bc 633f 73bc
00000370: ef35 9ebd d596 a83d ffa5 84bc efef 02bd
00000380: d44b 0a3e 578c c2bc f203 a5bc a846 273c
00000390: f4e0 eb3d 82e8 283d 9580 24bc e278 08bc
000003a0: 9434 09be 8bec e13a 5533 f23d 843b 89bd
000003b0: e000 df3d d4e6 42bd 9c82 feba 40a2 393b
000003c0: 7280 c7bd acdc a6bd 52fd c7bd 7aa3 1b3d
000003d0: 4639 bc3d 12c3 bf3d 3ffd 0b3d d15a d93b
000003e0: f5a9 553d c539 1d3d 2954 4e3d 2e37 0dbd
000003f0: 0590 cebc 2f8c c2bd 93cb c43b bf44 02bc

actor.4.bias f4 [128]
0.050089385 0.07995753 0.04865329 0.0950353 -0.05297971 -0.09740082 -0.061966684 -0.17759082
-0.19810794 -0.043031834 -0.014479756 -0.0066563976 0.009239031 -0.0063535636 0.06439996 -0.29337054
0.026244732 -0.10844315 -0.048142858 -0.01604032 -0.05022779 -0.02128853 0.061563123 -0.056434188
-0.22210777 -0.055174842 -0.06993896 0.0070032654 -0.03698582 -0.15315044 -0.016027052 0.002040167
-0.0470749 -0.08906339 -0.07502927 0.0040119733 0.007815047 -0.053744543 0.061688717 0.044377867
-0.070731364 -0.17804913 0.052081976 -0.020938165 -0.052210838 -0.10902589 -0.060328316 -0.010202435
0.010004134 -0.35065773 0.05507336 -0.11599231 0.064379394 -0.052675582 0.026481027 0.046959125
0.032951504 0.082899414 -0.0032994181 -0.052945524 0.027626237 -0.12852171 0.02298952 -0.07772048
-0.0047461893 0.07131224 -0.08781919 -0.08712139 -0.023269834 -0.22296052 0.0723481 0.08085227
-0.07779197 0.029078543 -0.096821554 -0.05817665 -0.01968319 -0.004393006 -0.010915731 -0.019656554
-0.14537227 -0.090842046 0.03900419 0.040097956 0.03829386 0.04585778 -0.1424897 -0.14045176
-0.054080717 -0.029925989 0.052017037 -0.048192713 -0.016305491 -0.0016488625 0.045281958 -0.05410319
-0.0025085225 0.016387247 -0.023003617 -0.068482056 -0.025754226 -0.06500732 -0.12008782 -0.18096283
-0.15198089 0.0057229917 -0.12691109 -0.02691191 -0.07848311 0.024053402 -0.06997544 -0.15048929
0.020823788 -0.06140267 0.08863879 -0.03551539 0.058852676 -0.05906372 0.025691172 -0.09715417
-0.08414851 0.02432365 -0.06800361 -0.2263481 -0.06777595 -0.20188704 0.023206208 -0.14811131
00000000: 872a 4d3d c6c0 a33d ac48 473d dea1 c23d
00000010: 4101 59bd 157a c7bd c7d0 7dbd 5eda 35be
00000020: cfdc 4abe 2642 30bd 803c 6dbc e91d dabb
00000030: 4e5f 173c 8e31 d0bb 20e4 833d aa34 96be
00000040: 31ff d63c 7117 debd 7231 45bd fd66 83bc
00000050: a8bb 4dbd 4965 aebc 9d29 7c3d 8927 67bd
00000060: 3870 63be 04ff 61bd 283c 8fbd a67b e53b
00000070: 717e 17bd 78d3 1cbe 2a4b 83bc 53b4 053b
00000080: 9cd1 40bd de66 b6bd f2a8 99bd df76 833b
00000090: af0a 003c 3d23 5cbd 4fad 7c3d 91c5 353d
000000a0: 9bdb 90bd 8352 36be e953 553d 8486 abbc
000000b0: 08db 55bd f748 dfbd d31a 77bd 1d28 27bc
000000c0: 61e8 233c 6989 b3be 9b94 613d 608d edbd
000000d0: 58d9 833d 5ac2 57bd bdee d83c 3658 403d
000000e0: 28f8 063d 2bc7 a93d 0d3b 58bb 68dd 58bd
000000f0: 6b50 e23c 329b 03be 8554 bc3c ea2b 9fbd
00000100: ec85 9bbb 270c 923d 8cda b3bd b36c b2bd
00000110: 61a0 bebc c34f 64be 3e2b 943d e095 a53d
00000120: 6551 9fbd 2036 ee3c 614a c6bd a44a 6ebd
00000130: a43e a1bc 35f3 8fbb e5d7 32bc c806 a1bc
00000140: 78dc 14be 650b babd dcc2 1f3d c13d 243d
00000150: 06da 1c3d 5ed5 3b3d d2e8 11be 96d2 0fbe
00000160: be83 5dbd 5927 f5bc d10f 553d b965 45bd
00000170: 1893 85bc a51e d8ba 9379 393d 4e9b 5dbd
00000180: 0666 24bb 8c3e 863c 1572 bcbc 5240 8cbd
00000190: 87fa d2bc 8f22 85bd 9af0 f5bd 524e 39be
000001a0: e1a0 1bbe ef87 bb3b fbf4 01be 5e76 dcbc
000001b0: c1bb a0bd a40b c53c 494f 8fbd dd19 1abe
000001c0: a696 aa3c 5e81 7bbd 4188 b53d 9678 11bd
000001d0: 810f 713d cdec 71bd 4b76 d23c c4f8 c6bd
000001e0: 0e56 acbd 6442 c73c 7a45 8bbd ccc7 67be
000001f0: 1ece 8abd 7abb 4ebe f21a be3c 7eaa 17be

actor.6.weight f4 [23, 128]
0.012326554 0.004315729 -0.044831827 -0.036688652 0.026674764 0.00662519 0.050657846 -0.012173251
0.0016986511 0.040467646 -0.025899839 -0.05432507 0.004038744 -0.057249475 -0.030429797 0.08109844
-0.0005829245 -0.011473598 -0.0059671975 0.00021012609 0.042498592 -0.010438809 -0.0076498664 0.026074223
-0.02898481 -0.041389734 0.00039709345 -0.0007024803 0.041164085 -0.026893426 0.018335253 0.043533053
0.0021055532 0.08667236 -0.021369038 -0.0017175238 -0.029141275 0.03198766 -0.019575372 -0.049561094
0.03515444 0.084951706 -0.0021005913 -0.019255316 0.050571635 0.04123844 0.00975345 -0.011811257
-0.015127812 0.07922406 -0.009467152 -0.032344904 0.009545824 -0.011984297 -0.0024295945 -0.0018139309
0.025798723 0.0044227573 0.044937983 0.033571277 0.054785836 0.08530796 0.006132032 0.058190428
0.017699689 -0.030902999 -0.026003055 0.051297504 -0.0077734054 0.0644311 0.016784085 -0.0026372601
0.0030251383 -0.0137428995 0.013462427 -0.04340613 0.019158559 0.03368173 0.010335812 0.0030314322
0.022925401 0.0089771 -0.03178956 0.01058295 0.051268626 -0.042984795 -0.04231263 0.056123886
-0.040803827 -0.0038062327 0.012438828 0.07582154 0.012390974 0.02959091 0.012925007 0.027781732
-0.028406354 -0.03199201 0.045967504 -0.084667936 0.033746332 0.060154922 0.04559225 0.06205511
0.016276598 0.001817763 -0.044594496 0.018300379 0.040060006 -0.08290114 0.0146785965 -0.005577124
-0.03328478 0.047107298 0.034868333 -0.017608957 0.0123544885 -0.03419642 -0.03192452 -0.08353096
-0.00025864906 -0.0074594435 -0.06402956 0.015006444 -0.035400834 -0.008149878 0.010923239 -0.021963065
0.047393735 0.014025894 -0.003977322 -0.0094043 -0.0073717963 -0.016862128 0.041361514 -0.030750232
0.019313687 -0.027721921 -0.004950143 0.02991635 -0.033058602 0.06640356 -0.0017123885 0.037654676
0.039692495 0.019018948 -0.026859717 0.022783238 -0.020626958 -0.015847977 0.081528 0.057748728
-0.043606218 0.012167557 -0.059129164 0.028010946 -0.11648192 -0.07146303 -0.028988278 0.022641584
0.032375094 -0.05657095 0.060101595 -0.027609875 0.011545756 -0.02703767 0.06419743 0.021029329
-0.04263202 0.024023514 0.031929694 -0.042731106 0.020516979 0.039665837 -0.0032600174 -0.022253923
-0.05289884 -0.029946573 0.010664249 -0.0441128 0.011906194 0.05192103 -0.038404007 -0.018429957
-0.02500638 -0.010567762 -0.033613823 0.01015898 -0.0105968425 0.05787391 0.0051153325 0.047987446
-0.019727455 0.037603203 0.0042699613 0.0233821 -0.014314391 0.0024407664 0.021639895 0.015819535
0.08045254 0.014518616 -0.057403266 -0.010612429 -0.04325004 0.0427403 -0.03833712 -0.02526381
-0.035556402 -0.06677565 0.0547192 0.009137217 -0.03214802 0.017504338 -0.025449997 -0.031999733
-0.0024729108 -0.01533585 0.02810203 -0.016077291 -0.033842016 -0.0019805578 0.010421981 -0.018186577
0.0019385746 0.0403307 -0.0014004397 0.043089036 -0.011760705 -0.04752245 -0.036328267 0.020030933
0.008649872 0.026357016 0.017743042 0.012220233 0.0066675614 -0.012169796 0.023252537 -0.07143686
-0.019393636 0.0022186914 0.018509198 -0.012768181 0.014683472 0.03787631 0.07563015 0.03928531
0.014245509 -0.0059701083 0.03428883 -0.010623097 0.0041550966 -0.08768617 -0.013764263 0.0044754604
00000000: 51f5 493c f56a 8d3b 94a1 37bd d746 16bd
00000010: 0985 da3c 1f18 d93b 9a7e 4f3d 5172 47bc
00000020: 46a5 de3a 67c1 253d e62b d4bc f783 5ebd
00000030: 7157 843b 6d7e 6abd e947 f9bc f016 a63d
00000040: 67cf 18ba c2fb 3bbc 7b88 c3bb 4b55 5c39
00000050: 0113 2e3d 8a07 2bbc bbab fabb 9c99 d53c
00000060: 8d71 edbc 4888 29bd fb30 d039 a826 38ba
00000070: ac9b 283d 9a4f dcbc d033 963c b74f 323d
00000080: 52fd 093b 4781 b13d 1f0e afbc 891e e1ba
00000090: afb9 eebc 7e05 033d 885c a0bc 9300 4bbd
000000a0: 1afe 0f3d 29fb ad3d 13aa 09bb 53bd 9dbc
000000b0: 3424 4f3d a3e9 283d efcc 1f3c 0184 41bc
000000c0: a4da 77bc 3940 a23d 1d1c 1bbc 177c 04bd
000000d0: 1666 1c3c c959 44bc d539 1fbb 6cc1 edba
000000e0: d857 d33c c7ec 903b e410 383d 0982 093d
000000f0: 1d67 603d f1b5 ae3d 36ef c83b 1659 6e3d
00000100: f0fe 903c 4928 fdbc 5c04 d5bc 551d 523d
00000110: 0db8 febb 74f4 833d c77e 893c e2d5 2cbb
00000120: 6641 463b e629 61bc 8391 5c3c a0ca 31bd
00000130: 69f2 9c3c dbf5 093d 8a57 293c feaa 463b
00000140: 0dce bb3c b014 133c c535 02bd 1c64 2d3c
00000150: 0dff 513d d310 30bd 0250 2dbd 29e2 653d
00000160: ea21 27bd fd71 79bb 3acc 4b3c 5348 9b3d
00000170: 8303 4b3c a368 f23c 69c3 533c 8496 e33c
00000180: 71b4 e8bc 0e0a 03bd 6c48 3c3d 6266 adbd
00000190: 9839 0a3d 0265 763d f0be 3a3d 802d 7e3d
000001a0: 8056 853c 0142 ee3a b8a8 36bd adea 953c
000001b0: f615 243d 13c8 a9bd 7f7e 703c 4fc0 b6bb
000001c0: 9f55 08bd 95f3 403d 19d2 0e3d a940 90bc
000001d0: 7b6a 4a3c 8c11 0cbd 49c3 02bd 4812 abbd
000001e0: 4a9b 87b9 596e f4bb ee21 83bd 97dd 753c
000001f0: 7700 11bd 1187 05bc 63f7 323c e3eb b3bc
00000200: ef1f 423d ddcc 653c 3254 82bb 7e14 1abc
00000210: 1c8f f1bb 7222 8abc b16a 293d e9e7 fbbc
00000220: bd37 9e3c 1519 e3bc cf34 a2bb 2213 f53c
00000230: 7568 07bd 97fe 873d 3972 e0ba ca3b 1a3d
00000240: 9994 223d a0cd 9b3c e908 dcbc eaa3 ba3c
00000250: def9 a8bc 9ed3 81bc 27f8 a63d ee89 6c3d
00000260: 6f9c 32bd 6f5a 473c 6c31 72bd 3677 e53c
00000270: 138e eebd 365b 92bd d378 edbc d87a b93c
00000280: bf9b 043d f1b6 67bd 172d 763d 1b2e e2bc
00000290: 692a 3d3c 1b7e ddbc f179 833d b345 ac3c
000002a0: ea9e 2ebd f6cc c43c b6c8 023d d006 2fbd
000002b0: 3913 a83c a578 223d 04a6 55bb dc4d b6bc
000002c0: 74ac 58bd 8452 f5bc 1ab9 2e3c a0af 34bd
000002d0: 3212 433c 25ab 543d 854d 1dbd 6cfa 96bc
000002e0: 2eda ccbc 6824 2dbc a6ae 09bd da71 263c
000002f0: 619e 2dbc 310d 6d3d 859e a73b 7c8e 443d
00000300: 799b a1bc d105 1a3d 08eb 8b3b d18b bf3c
00000310: e886 6abc 44f5 1f3b 2646 b13c f897 813c
00000320: 4dc4 a43d 7ddf 6d3c b01f 6bbd c1df 2dbc
00000330: f426 31bd 7410 2f3d 6207 1dbd 0df6 cebc
00000340: 97a3 11bd acc1 88bd 3d21 603d 44b4 153c
00000350: a4ad 03bd 4265 8f3c 837c d0bc 2712 03bd
00000360: 8f10 22bb 3843 7bbc 3a36 e63c 86b4 83bc
00000370: ed9d 0abd 3fcc 01bb f5c0 2a3c 04fc 94bc
00000380: c517 fe3a ce31 253d f58e b7ba 217e 303d
00000390: f9af 40bc e7a6 42bd f3cc 14bd e917 a43c
000003a0: 31b8 0d3c abea d73c db59 913c 5f37 483c
000003b0: 8f7b da3b d363 47bc 1b7c be3c 7d4d 92bd
000003c0: 67df 9ebc 7767 113b 9aa0 973c a231 51bc
000003d0: f292 703c 3124 1b3d fbe3 9a3d a2e9 203d
000003e0: ff65 693c e6a0 c3bb 7272 0c3d 800c 2ebc
000003f0: 7a27 883b cf94 b3bd 8183 61bc e2a6 923b

actor.6.bias f4 [23]
-0.10897629 0.13899165 0.03709403 0.03935083 -0.130591 0.006813011 -0.044433568 0.0006749419
-0.021429941 0.13876435 -0.024863085 -0.06261171 -0.012797249 0.089236826 -0.069029436 0.15632269
0.1427204 -0.1160848 -0.15141861 -0.08524717 0.08664136 0.056653164 -0.021039138
00000000: f62e dfbd d453 0e3e e9ef 173d 562e 213d
00000010: a6b9 05be ae3f df3b f9ff 35bd 96ee 303a
00000020: d88d afbc 3e18 0e3e abad cbbc 913a 80bd
00000030: 8dab 51bc ccc1 b63d 4e5f 8dbd 0e13 203e
00000040: 4c25 123e debd edbd 7b0d 1bbe 1196 aebd
00000050: 0671 b13d 260d 683d 455a acbc
